model/plate_rec_color.onnx (onnx, 722829 bytes, 26 tensors)

newCnn.weight f4 [78, 128, 1, 1]
-0.66104794 0.6895851 -0.07296089 1.1421014 0.21506456 0.9848001 -0.64757836 -0.37643167
-0.015320645 0.82500803 1.0508927 0.0041891146 0.4038451 -0.6604606 0.07584259 -0.20851295
0.78344584 0.032283843 -0.2076688 0.1453022 0.3591335 0.013882476 0.033823043 0.0020398474
0.17006303 -0.10178188 -0.31020838 0.19663814 0.8101785 -0.030449606 -0.7074457 -0.018389843
1.007746 -0.14795753 -0.54004586 -0.44626424 0.3185413 0.7086527 0.10547236 0.78659105
-0.6915438 0.25613376 0.5990311 -0.40658385 -0.2566197 -0.37403214 1.0778233 -0.038660225
0.4122445 0.17598087 -0.5316637 -0.19861042 0.6534429 -0.53573656 -0.37082803 -0.22849686
-0.07381616 0.5473857 0.032900326 -0.20696205 -0.28784448 -0.011813584 0.7837705 -0.38875678
0.12308637 -1.133816 -0.030616261 -0.48667306 0.5131031 -0.2666709 -0.2253336 -0.3025518
-0.71442217 -0.5185779 -0.07647867 -0.41694194 -1.1016794 0.39276662 0.1539445 0.94131213
-0.063294254 0.3503619 0.76720935 0.23055373 -0.2434549 -0.29968297 -0.68854845 -0.17280315
0.029805409 0.016053114 -0.7995967 0.4477586 -0.6863816 -0.17634732 -0.207088 0.07411448
0.8973932 -0.28853914 -0.50853884 0.40320942 0.8129736 0.21452431 0.32409078 -0.22333045
0.3692499 -0.077133454 -0.087883785 0.3346854 -0.10289411 0.0953013 0.978994 -0.21093838
-0.10538808 0.64833754 -0.50723475 -0.2870527 0.21050349 -1.0333576 0.47494197 -0.3573552
0.42803803 -0.0050646 0.08002843 -0.1712226 0.2852693 -0.1116629 1.1973825 0.43657365
-0.6411491 0.3040204 -0.6658171 -1.2829181 -0.08662595 0.4118035 0.35583314 1.107619
0.73933095 0.69909006 -0.8304837 -0.3177036 -0.6621799 0.0704727 -0.2741261 -0.48168677
-0.13400128 -0.11624921 -0.6821757 0.79188436 -0.8262501 -0.67057675 -0.012737755 -0.41850767
-0.17004654 -0.15949655 0.095890954 -0.07509524 -0.14145903 -0.7186075 0.46577892 0.078369014
-0.7385507 -0.10725781 -0.4223813 0.45746303 -0.047515303 -0.17072849 -0.2015518 -0.92251164
-0.33315027 -0.7271603 -0.54818493 -0.39235377 0.2209176 -0.4954492 -0.73347986 -0.5608021
-0.38756153 -0.26494956 -0.20294765 0.074089706 -0.9134416 0.16225438 -0.20025083 0.4697006
0.17711005 -0.1179541 0.4926497 -0.41333598 0.008364024 -0.04657737 0.6330557 -0.38082567
-0.66069084 0.50091225 0.23401201 0.63143736 0.3809418 0.035909627 -0.12836486 -0.32009265
0.4468647 -0.049042776 -0.29968518 -0.06275451 -0.3342938 -0.13172342 -0.14054705 -0.038163014
-0.13245395 -0.30442458 0.81064975 -0.28608516 1.1126597 0.4408327 -0.0467087 0.2581946
-0.24958014 0.120876126 0.19647528 -0.3979244 0.2252042 -0.3222558 -0.26945928 0.2445833
0.16974251 -0.06987172 -0.52941465 -0.69175947 0.2611218 0.47108755 0.014833177 0.44459677
-0.43457067 -0.18102589 0.7300739 0.4741776 0.29919794 -0.4754064 0.13155147 -0.53755224
0.66953456 -0.39419577 -0.9298017 0.02108629 0.43160883 -0.3656649 -0.60319746 -0.1331734
0.17283109 -0.13882636 -0.3520566 -0.20922595 -0.05793678 -0.35214224 -0.5833563 -0.21657164
00000000: 703a 29bf a688 303f 856c 95bd 6130 923f
00000010: e239 5c3e dc1b 7c3f b2c7 25bf a7bb c0be
00000020: 7103 7bbc ba33 533f a783 863f d744 893b
00000030: c9c4 ce3e f213 29bf 5c53 9b3d 6b84 55be
00000040: e88f 483f 103c 043d 21a7 54be 1aca 143e
00000050: 59e0 b73e 5373 633c 088a 0a3d f6ae 053b
00000060: 0125 2e3e 0573 d0bd a2d3 9ebe 825b 493e
00000070: dc67 4f3f 7471 f9bc 291b 35bf 4ca6 96bc
00000080: d2fd 803f 2e82 17be 7240 0abf bf7c e4be
00000090: d817 a33e 436a 353f e501 d83d 085e 493f
000000a0: 0409 31bf f723 833e 1a5a 193f c22b d0be
000000b0: a863 83be 2481 bfbe 1df6 893f 2f5a 1ebd
000000c0: b611 d33e 5434 343e 1d1b 08bf 8860 4bbe
000000d0: 0948 273f 0826 09bf 2cdd bdbe 15fb 69be
000000e0: ed2c 97bd 7821 0c3f 7ec2 063d dced 53be
000000f0: 5a60 93be c38d 41bc 2fa5 483f 210b c7be
00000100: b514 fc3d e220 91bf f4ce fabc 362d f9be
00000110: ba5a 033f 1789 88be dabd 66be 12e8 9abe
00000120: 5fe4 36bf 85c1 04bf d9a0 9cbd 6a79 d5be
00000130: d503 8dbf b518 c93e a1a3 1d3e d5f9 703f
00000140: 6ba0 81bd a362 b33e d567 443f 4716 6c3e
00000150: 3e4c 79be 0c70 99be b644 30bf 4ff3 30be
00000160: 792a f43c d281 833c 5fb2 4cbf 9d40 e53e
00000170: b4b6 2fbf 6494 34be e00e 54be 55c9 973d
00000180: 90bb 653f 67bb 93be 9a2f 02bf 7771 ce3e
00000190: 0a1f 503f 43ac 5b3e 3aef a53e bdb0 64be
000001a0: 530e bd3e 25f8 9dbd 6afc b3bd e25b ab3e
000001b0: 26ba d2bd 542d c33d 5a9f 7a3f 3b00 58be
000001c0: b5d5 d7bd 73f9 253f 23da 01bf 92f8 92be
000001d0: 3a8e 573e 1045 84bf 982b f33e 43f7 b6be
000001e0: cd27 db3e f2f4 a5bb f2e5 a33d fa54 2fbe
000001f0: d10e 923e 85af e4bd d443 993f 9586 df3e
00000200: 5922 24bf 90a8 9b3e fd72 2abf a936 a4bf
00000210: f268 b1bd e9d7 d23e c32f b63e 76c6 8d3f
00000220: cb44 3d3f 91f7 323f 949a 54bf 0caa a2be
00000230: 9f84 29bf fe53 903d 425a 8cbe a69f f6be
00000240: a237 09be 1114 eebd 11a3 2ebf efb8 4a3f
00000250: 2085 53bf ebaa 2bbf 04b2 50bc a346 d6be
00000260: ae20 2ebe 1053 23be 7a62 c43d 88cb 99bd
00000270: a3da 10be a9f6 37bf 937a ee3e ef7f a03d
00000280: a911 3dbf fca9 dbbd 5d42 d8be 9838 ea3e
00000290: 689f 42bd 73d3 2ebe 9863 4ebe b929 6cbf
000002a0: ac92 aabe 2d27 3abf d955 0cbf 98e2 c8be
000002b0: 3938 623e 84ab fdbe 56c5 3bbf ba90 0fbf
000002c0: 776e c6be 78a7 87be 82d1 4fbe 58bc 973d
000002d0: 4fd7 69bf 0326 263e 8e0e 4dbe 997c f03e
000002e0: 565c 353e eb91 f1bd 953c fc3e c6a0 d3be
000002f0: 4209 093c eac7 3ebd f00f 223f 95fb c2be
00000300: 0923 29bf c93b 003f d8a0 6f3e e1a5 213f
00000310: ce0a c33e f915 133d 1472 03be 2fe3 a3be
00000320: 73cb e43e 14e1 48bd 5670 99be 7085 80bd
00000330: 8f28 abbe 81e2 06be 91eb 0fbe d250 1cbd
00000340: 02a2 07be 8add 9bbe be86 4f3f c179 92be
00000350: a26b 8e3f d3b4 e13e 9f51 3fbd 1532 843e
00000360: f091 7fbe e78d f73d d130 493e bfbc cbbe
00000370: ee9b 663e b6fe a4be 91f6 89be 0b74 7a3e
00000380: fbd0 2d3e e818 8fbd b887 07bf 2617 31bf
00000390: c2b1 853e 6332 f13e db06 733c 30a2 e33e
000003a0: 0c80 debe da5e 39be 20e6 3a3f 68c7 f23e
000003b0: 7930 993e 7868 f3be 6eb5 063e 069d 09bf
000003c0: 9e66 2b3f 07d4 c9be 7c07 6ebf 28bd ac3c
000003d0: d5fb dc3e 6e38 bbbe 266b 1abf 9c5e 08be
000003e0: a2fa 303e 7f28 0ebe c340 b4be 543f 56be
000003f0: 1e4f 6dbd fd4b b4be d756 15bf f5c4 5dbe

newCnn.bias f4 [78]
-0.08998953 0.02126994 -0.006809037 -0.037901714 0.012666715 0.016368765 0.11666231 -0.1373057
0.1319461 -0.114148706 -0.52541417 0.02718902 0.090615794 -0.06358746 -0.11063518 0.117101625
-0.11193516 0.0645075 -0.18158737 0.19102153 0.029187275 -0.018088965 -0.24530594 0.37996992
-0.019347968 0.16260207 -0.61637247 -0.106104895 0.044778794 0.006275113 -0.18955225 0.071710624
-0.46073562 -0.13834336 -0.38331828 -0.35992518 -0.45917824 0.066161476 -0.4492078 -0.0075244154
-0.47142386 -0.23338388 0.36002126 -0.007230549 0.16094537 0.11457258 0.0016442634 0.051598184
0.1644219 0.16710182 0.2524157 -0.10406728 -0.098509915 0.03373239 -0.11416806 -0.12484222
-0.0821641 -0.11917754 -0.066402644 0.0899594 -0.050953943 -0.120739646 -0.056824066 -0.104368225
0.10622186 0.19006017 -0.1974252 0.12828827 -0.052542713 -0.15298212 -0.49613637 -0.05126363
-0.20708318 0.063363776 0.037042644 -0.31894758 -0.07331181 -0.17651644
00000000: 6e4c b8bd 4c3e ae3c 581e dfbb d43e 1bbd
00000010: 0e88 4f3c ca17 863c a6ec ee3d de99 0cbe
00000020: e11c 073e ccc6 e9bd 8b81 06bf 82bb de3c
00000030: c694 b93d 243a 82bd b294 e2bd fad2 ef3d
00000040: 433e e5bd 821c 843d 0af2 39be 269b 433e
00000050: 271a ef3c 4f2f 94bc 7b31 7bbe 6b8b c23e
00000060: a17f 9ebc 2881 263e 96ca 1dbf 864d d9bd
00000070: f869 373d 779f cd3b fc19 42be 05dd 923d
00000080: 8ae5 ebbe e2a9 0dbe 4b42 c4be 1d48 b8be
00000090: 6919 ebbe ab7f 873d 91fe e5be 5f8f f6bb
000000a0: 785e f1be 2ffc 6ebe b554 b83e 3eee ecbb
000000b0: ddce 243e 07a5 ea3d 5384 d73a 9e58 533d
000000c0: 375e 283e bd1c 2b3e a13c 813e 3a21 d5bd
000000d0: 91bf c9bd f92a 0a3d f2d0 e9bd 47ad ffbd
000000e0: a745 a8bd 5b13 f4bd 1cfe 87bd a23c b83d
000000f0: 15b5 50bd 5946 f7bd 5ac0 68bd 02bf d5bd
00000100: d98a d93d 229f 423e d529 4abe 005e 033e
00000110: 0737 57bd 58a7 1cbe 9605 febe d0f9 51bd
00000120: 9d0d 54be dec4 813d 07ba 173d 194d a3be
00000130: 8124 96bd bac0 34be

onnx::Conv_132 f4 [8, 3, 5, 5]
0.004210888 -0.0051072566 0.01159315 -0.022513922 0.0077815563 0.020940118 -0.015986389 -0.03166102
-0.046908047 -0.038310032 -0.0013645216 0.008078607 0.014165294 -0.022676118 -0.004471297 0.019565044
0.031210957 0.019018037 0.00058361137 -0.000613802 -0.0053095897 0.02518271 0.01853883 -0.0017145218
-0.023365406 -0.003980162 -0.031005235 -0.026153324 -0.071087115 -0.08421942 0.032491483 -0.006383425
-0.017307354 -0.074155055 -0.0912414 0.034396857 0.04066136 -0.008011312 -0.03216441 -0.0456999
0.04511346 0.052281342 0.032004043 0.011592365 -0.042400457 0.061995786 0.064039275 0.026748164
0.016772948 -0.009434663 0.012095161 -0.0063444325 -0.010340314 -0.033293165 -0.04618771 0.026123546
0.00013196094 -0.021938208 -0.04946774 -0.038082052 0.020955168 0.028003784 0.0045122867 -0.021967757
-0.004989901 0.036977544 0.062096916 0.0491555 0.015402307 -0.02053311 0.043137934 0.035589755
0.04353833 0.03939731 -5.2607942e-05 0.023538282 0.0013506016 -0.0062354896 0.021695873 0.00450695
0.038001038 -0.0018965587 -0.007731942 -0.008295797 -0.00044675727 0.008739715 -0.0037812411 -0.026181329
-0.03656119 -0.016010487 0.033594728 -0.017192606 -0.042381205 -0.037037406 -0.022767328 0.0150923645
0.005695618 -0.028426325 -0.001476455 0.0011701101 0.060505893 0.036427006 0.023761742 0.0032514287
-0.025171824 0.075895645 0.036073126 0.0148900235 0.0013661112 -0.025573503 0.07162492 0.020906493
-0.013873494 -0.036208406 -0.05926265 0.028956188 -0.0053070164 -0.019360848 -0.054172732 -0.06631998
0.033588316 0.010912462 -0.017087197 -0.05812769 -0.059717763 0.07375115 0.048536394 0.049105663
0.030022629 -0.009108388 0.05435599 0.05205492 0.008270687 0.019254943 0.0016549105 0.054639507
0.027496848 -0.01702141 -0.0102301845 -0.026848802 0.02389261 0.0038292084 -0.04363735 -0.046900384
-0.056615297 0.02514535 -0.017851522 -0.036051136 -0.05722964 -0.050396346 -0.26217085 -0.032026924
0.20335326 0.353827 -0.051991638 -0.14876422 0.5409098 -0.3941397 -0.6292473 0.4214203
-0.13691132 0.29454795 -0.22814067 -0.17742783 0.26393813 -0.14894658 0.012595646 0.32367927
0.3943087 -0.06558034 -0.13234195 -0.007513422 -0.10946419 -0.072580166 -0.06489089 -0.0418996
-0.046764266 0.13197848 0.30678764 0.080339685 0.017353598 0.5228066 -0.69484866 -0.8697973
0.42007503 -0.12746623 0.29648203 -0.4625151 -0.3366145 0.29379678 0.08772648 -0.11162984
0.42687652 0.26032218 0.041214347 0.015073801 -0.025898252 0.0042275665 -0.076940134 0.16665559
0.21560653 0.14300482 0.14224143 0.25688505 -0.22879434 0.1354421 0.22297823 -0.7197457
-0.8405294 0.24905643 0.10962324 0.20510918 -0.46514624 -0.32935953 0.047149163 0.13886899
-0.12816587 0.33887845 0.48504457 -0.21666816 0.12071158 -0.0186185 -0.13448966 0.007847863
-0.16613223 -0.017575594 -0.010215407 0.016175536 0.022537244 0.03252009 -0.008584243 0.009873907
-0.0023202982 0.01857071 0.0367296 -0.026463186 -0.029315079 0.03261671 0.044530377 0.01815631
-0.012078164 -0.03916115 -0.034449402 0.0104474975 0.0020085508 -0.0038541795 -0.019566894 0.006536959
-0.0110443635 0.015223439 -0.027795546 -6.541874e-05 0.014073275 0.04752741 0.047795024 -0.021510817
00000000: 7dfb 893b c65a a7bb 32f1 3d3c 1e6f b8bc
00000010: 6dfc fe3b 9c8a ab3c e3f5 82bc fcae 01bd
00000020: a722 40bd fbea 1cbd bfd9 b2ba 225c 043c
00000030: 8d15 683c 44c3 b9bc f583 92bb df46 a03c
00000040: 1fae ff3c b7cb 9b3c 7ffd 183a 8ee7 20ba
00000050: 11fc adbb f84b ce3c bfde 973c ceb9 e0ba
00000060: cf68 bfbc 056c 82bb b1fe fdbc 7f3f d6bc
00000070: 1f96 91bd 3b7b acbd ca15 053d 0d2c d1bb
00000080: 27c8 8dbc 9bde 97bd c5dc babd b8e3 0c3d
00000090: 878c 263d e141 03bc d4be 03bd d12f 3bbd
000000a0: e4c8 383d f624 563d ac16 033d e7ed 3d3c
000000b0: 1aac 2dbd 4bef 7d3d 0627 833d f71e db3c
000000c0: 6c67 893c d893 1abc c82a 463c f5e4 cfbb
000000d0: 6c6a 29bc 6a5e 08bd 532f 3dbd 0c01 d63c
000000e0: ff5e 0a39 c2b7 b3bc af9e 4abd edfb 1bbd
000000f0: 2caa ab3c 3168 e53c cedb 933b baf5 b3bc
00000100: 5382 a3bb c475 173d 5659 7e3d 4757 493d
00000110: f559 7c3c 0d35 a8bc 67b1 303d 90c6 113d
00000120: 3f55 323d 135f 213d 59a7 5cb8 5bd3 c03c
00000130: ab06 b13a 1453 ccbb 8bbb b13c 09af 933b
00000140: faa6 1b3d f395 f8ba 3b5c fdbb 18eb 07bc
00000150: bf3a eab9 0631 0f3c b3ce 77bb 3a7a d6bc
00000160: 30c1 15bd 6d28 83bc a09a 093d 82d7 8cbc
00000170: ea97 2dbd 89b4 17bd 8c82 babc f745 773c
00000180: 4fa2 ba3b 53de e8bc 9c85 c1ba 615e 993a
00000190: 07d5 773d 7c34 153d fca7 c23c ec15 553b
000001a0: 2435 cebc 2d6f 9b3d 6ac1 133d 49f5 733c
000001b0: 160f b33a 867f d1bc 16b0 923d 1844 ab3c
000001c0: a74d 63bc 444f 14bd 64bd 72bd 8735 ed3c
000001d0: 7be6 adbb a49a 9ebc 3ae4 5dbd c5d2 87bd
000001e0: e793 093d 2fca 323c 73fa 8bbc 4d17 6ebd
000001f0: 9d9a 74bd d80a 973d 19ce 463d 0523 493d
00000200: 04f2 f53c 593b 15bc 63a4 5e3d 8a37 553d
00000210: c781 073c 8bbc 9d3c 95e9 d83a adcd 5f3d
00000220: 1241 e13c 7c70 8bbc 819c 27bc 05f2 dbbc
00000230: 6fba c33c 75f3 7a3b 14bd 32bd 9e1a 40bd
00000240: 71e5 67bd 9ffd cd3c 5b3d 92bc 5baa 13bd
00000250: a169 6abd 666c 4ebd 423b 86be aa2e 03bd
00000260: d63b 503e d028 b53e 2ff5 54bd a655 18be
00000270: 1179 0a3f aecc c9be 5a16 21bf 67c4 d73e
00000280: 7b32 0cbe fdce 963e b59d 69be a4af 35be
00000290: e622 873e 7485 18be f85d 4e3c 4ab9 a53e
000002a0: d4e2 c93e fc4e 86bd a684 07be 2733 f6bb
000002b0: c32e e0bd e9a4 94bd 84e5 84bd ea9e 2bbd
000002c0: e38b 3fbd 5e25 073e 4513 9d3e 2289 a43d
000002d0: 2229 8e3c a7d6 053f 9ae1 31bf 09ab 5ebf
000002e0: 1314 d73e 8286 02be 7ecc 973e c7ce ecbe
000002f0: bc58 acbe 886c 963e f1a9 b33d 309e e4bd
00000300: 8f8f da3e f348 853e 60d0 283d 1bf8 763c
00000310: 9228 d4bc 6687 8a3b ca92 9dbd c3a7 2a3e
00000320: f5c7 5c3e db6f 123e bda7 113e 7086 833e
00000330: 1049 6abe 55b1 0a3e 6854 643e 4141 38bf
00000340: ef2c 57bf a608 7f3e 2682 e03d 2408 523e
00000350: a627 eebe d0a1 a8be 7b1f 413d ac33 0e3e
00000360: ea3d 03be 7a81 ad3e c357 f83e 42de 5dbe
00000370: a237 f73d d385 98bc a8b7 09be 5394 003c
00000380: 911e 2abe b1fa 8fbc 865e 27bc 8f82 843c
00000390: 07a0 b83c c933 053d eda4 0cbc 2bc6 213c
000003a0: 2510 18bb 9a21 983c c771 163d 53c9 d8bc
000003b0: 2d26 f0bc 1999 053d 7c65 363d 8bbc 943c
000003c0: 7ee3 45bc 7167 20bd d11a 0dbd fb2b 2b3c
000003d0: e4a1 033b 6796 7cbb c04a a0bc fd33 d63b
000003e0: 6bf3 34bc bb6b 793c 7cb3 e3bc 6b31 89b8
000003f0: 9893 663c 1aac 423d b7c4 433d 7437 b0bc

onnx::Conv_133 f4 [8]
0.31251335 0.22983614 1.3905587 0.3710953 0.2986471 0.56068903 -0.18804544 -0.71807694
00000000: c001 a03e 2a5a 6b3e d4fd b13f 3400 be3e
00000010: 46e8 983e 5189 0f3f fc8e 40be e4d3 37bf

onnx::Conv_135 f4 [8, 8, 3, 3]
-0.18783168 -0.0058570504 -0.045940146 -0.2217616 -0.10058507 -0.15457219 0.03762274 -0.02091565
-0.25731972 0.0907487 0.13775422 0.08860105 0.09031487 0.0072600525 0.21436286 -0.017395172
0.01346742 0.06411777 0.02558391 -0.17715968 0.1366869 -0.30202672 -0.42247707 0.15779352
0.27355596 0.329482 -0.029586593 -0.05387827 0.0262217 -0.1139226 0.11650899 0.23950936
0.06652548 0.05988393 0.10251534 0.10627172 -0.0487886 -0.020838173 -0.25136116 -0.0801911
-0.25913435 -0.35789317 -0.09265836 -0.080160394 0.029005578 0.092008114 -0.078282595 -0.062766105
0.034577984 0.010661084 0.10166469 -0.22524373 -0.05461305 0.19057938 -0.09404737 0.0012310994
-0.08506157 -0.061169766 0.034703486 -0.040846545 0.12671526 0.11043644 0.018392753 0.22232294
0.51687384 0.5154637 -0.011023158 0.3590237 0.16119993 -0.38494974 -0.2938336 -0.48680556
0.048898622 -0.061640207 0.06402751 0.013779856 0.08367942 0.09095803 -0.25479692 0.15867983
-0.0022266214 -0.11033248 -0.106447205 -0.025837254 -0.1626848 -0.13895917 -0.057729844 -0.08995203
0.015214784 -0.009678681 0.08521792 0.28760284 0.20790501 -0.16694899 -0.37871435 -0.051663406
0.023117347 -0.0941387 -0.0025886418 -0.24475476 -0.03108791 -0.043343548 0.019728867 0.1615496
0.3150547 -0.11738207 -0.039885763 0.25969443 0.1472748 0.043209698 0.05277489 0.007921432
-0.05034228 0.17131661 0.024306118 -0.31010705 -0.06765116 -0.21232074 -0.15939584 0.07494262
-0.019124417 -0.077974446 0.04687624 -0.05567524 -0.05023852 0.12494369 0.22107805 0.072031684
0.083179064 -0.19246899 -0.4121731 -0.025110466 0.16807292 0.0028873114 0.068926156 -0.3499994
-0.042350646 0.43546876 0.021126004 0.08650446 0.44025767 -0.048339985 0.020107336 0.25942373
-0.03595892 0.09298313 -0.12425007 0.059838466 0.23344466 0.073601775 0.040215295 0.13998984
0.07462023 -0.04110047 -0.03178785 -0.090348125 0.041223545 -0.03959649 -0.13861178 -0.00045272632
-0.08016751 -0.028612869 -0.029205933 0.038984127 0.10000971 -0.023022259 0.15741053 0.09892793
-0.090756185 -0.12079111 -0.10834113 0.017715566 -0.09050722 0.054515556 -0.060071636 -0.120320044
-0.1382702 0.020529974 -0.08186744 -0.12698506 -0.19191118 0.03397872 0.079699285 -0.08315057
0.110271126 0.24517263 0.014388825 0.16961993 0.10740069 -0.10836605 -0.049880557 0.008312432
-0.014797524 -0.019216044 -0.046448108 0.121694915 0.10195394 0.10852014 0.06302869 0.10882729
0.0065073716 0.00476852 0.03826302 0.04989027 -0.022174556 -0.13821545 -0.080876194 0.04850131
-0.13110416 -0.11535386 0.18268013 0.11787227 0.034258407 0.25176084 0.3452846 0.29988945
-0.05845153 -0.07485086 -0.077723935 0.051832274 0.05415139 0.014156763 0.034782138 0.064660855
0.073727764 0.10079902 0.06402081 0.21775813 0.117024615 0.07944627 0.20491163 0.0048547243
-0.15561903 -0.04843476 0.06538372 -0.005834088 -0.07997106 -0.053155918 0.047282446 -0.019992616
-0.08727286 0.16396101 -0.017514082 -0.18770699 -0.09468122 -0.07929305 -0.13285244 -0.14580454
-0.074720554 -0.10682025 -0.029494219 -0.019256331 0.08178645 0.01148769 -0.10880457 -0.03345248
00000000: f356 40be 80ec bfbb bc2b 3cbd 7915 63be
00000010: 8cff cdbd 2c48 1ebe 4d1a 1a3d 4c57 abbc
00000020: 69bf 83be 74da b93d 710f 0d3e 7874 b53d
00000030: 01f7 b83d bce5 ed3b f081 5b3e 5280 8ebc
00000040: 74a6 5c3c 2d50 833d 5995 d13c 5969 35be
00000050: a7f7 0b3e 3fa3 9abe ea4e d8be a094 213e
00000060: 870f 8c3e ddb1 a83e 955f f2bc 76af 5cbd
00000070: e4ce d63c 4150 e9bd 449c ee3d f141 753e
00000080: 833e 883d da48 753d 90f3 d13d fda4 d93d
00000090: 8ed6 47bd d1b4 aabc 69b2 80be 3b3b a4bd
000000a0: 42ad 84be c63d b7be abc3 bdbd 222b a4bd
000000b0: 1b9d ed3c c06e bc3d a052 a0bd 848b 80bd
000000c0: a5a1 0d3d d4ab 2e3c 9435 d03d 4ba6 66be
000000d0: efb1 5fbd 3e27 433e e89b c0bd d75c a13a
000000e0: c334 aebd 268d 7abd 3e25 0e3d b54e 27bd
000000f0: a5c1 013e 802c e23d 66ac 963c a0a8 633e
00000100: d851 043f 6ef5 033f 7a9a 34bc f4d1 b73e
00000110: 9811 253e 2218 c5be 5c71 96be 943e f9be
00000120: ec49 483d 717a 7cbd db20 833d e8c4 613c
00000130: 1e60 ab3d 3448 ba3d be74 82be f77c 223e
00000140: 82ec 11bb fff5 e1bd fe00 dabd a6a8 d3bc
00000150: d896 26be 504b 0ebe 2176 6cbd c538 b8bd
00000160: 6e47 793c 5593 1ebc bc86 ae3d ae40 933e
00000170: 0de5 543e adf4 2abe d9e6 c1be 029d 53bd
00000180: 9760 bd3c cacb c0bd 34a6 29bb fea0 7abe
00000190: 13ac febc 0189 31bd 6f9e a13c 426d 253e
000001a0: da4e a13e 0366 f0bd 415f 23bd abf6 843e
000001b0: 35cf 163e a7fc 303d 7c2a 583d e5c8 013c
000001c0: b533 4ebd 9f6d 2f3e a01d c73c 5ac6 9ebe
000001d0: b18c 8abd 9c6a 59be aa38 23be 847b 993d
000001e0: cfaa 9cbc 11b1 9fbd 4d01 403d b80b 64bd
000001f0: e8c6 4dbd 7ae2 ff3d 4962 623e 5985 933d
00000200: c959 aa3d 9716 45be 5a08 d3be 77b4 cdbc
00000210: 4f1b 2c3e 0c39 3d3b 2829 8d3d 1f33 b3be
00000220: df77 2dbd c3f5 de3e 7110 ad3c 4029 b13d
00000230: 7469 e13e 2600 46bd 24b8 a43c 30d3 843e
00000240: a949 13bd f06d be3d d276 febd 2e19 753d
00000250: 1e0c 6f3e 87bc 963d cbb8 243d 7f59 0f3e
00000260: 7ed2 983d f758 28bd fa33 02bd 7008 b9bd
00000270: 05da 283d ee2f 22bd 3ff0 0dbe e65b edb9
00000280: dd2e a4bd 8965 eabc 4841 efbc d2ad 1f3d
00000290: e4d1 cc3d 2d99 bcbc 3a30 213e ba9a ca3d
000002a0: 61de b9bd 5461 f7bd f4e1 ddbd 3c20 913c
000002b0: d95b b9bd b44b 5f3d ad0d 76bd 5b6a f6bd
000002c0: b496 0dbe 7a2e a83c 1eaa a7bd 5f08 02be
000002d0: 5d84 44be 452d 0b3d 6139 a33d d94a aabd
000002e0: d4d5 e13d 890e 7b3e 1bbf 6b3c d9b0 2d3e
000002f0: e5f4 db3d 05ef ddbd 8e4f 4cbd de30 083c
00000300: 5071 72bc f76a 9dbc 5f40 3ebd 2f3b f93d
00000310: 3acd d03d cf3f de3d 3015 813d d8e0 de3d
00000320: ca3b d53b 3f41 9c3b afb9 1c3d bd59 4c3d
00000330: 6aa7 b5bc 5a88 0dbe 6ba2 a5bd 4fa9 463d
00000340: 2b40 06be a53e ecbd 8010 3b3e 0467 f13d
00000350: 8b52 0c3d cce6 803e 25c9 b03e 1c8b 993e
00000360: df6a 6fbd 684b 99bd ba2d 9fbd 144e 543d
00000370: d9cd 5d3d c5f1 673c b777 0e3d e96c 843d
00000380: 95fe 963d b76f ce3d 581d 833d fdfb 5e3e
00000390: 9aaa ef3d bab4 a23d 5bd4 513e 6114 9f3b
000003a0: 985a 1fbe 8763 46bd e6e7 853d e12b bfbb
000003b0: dec7 a3bd 05ba 59bd 3dab 413d 8ec7 a3bc
000003c0: 1dbc b2bd 65e5 273e b179 8fbc 4336 40be
000003d0: 3ae8 c1bd 6564 a2bd 780a 08be c94d 15be
000003e0: 1707 99bd 93c4 dabd dc9d f1bc 74bf 9dbc
000003f0: a87f a73d dd36 3c3c eed4 debd 7805 09bd

onnx::Conv_136 f4 [8]
0.756147 0.5473132 0.14088702 0.67599314 0.22358572 -0.5607383 0.7259687 1.2521632
00000000: da92 413f b81c 0c3f b044 103e e30d 2d3f
00000010: a8f3 643e 8c8c 0fbf 16d9 393f e246 a03f

onnx::Conv_138 f4 [16, 8, 3, 3]
0.087985136 0.031712905 0.080350466 0.1602948 0.0109771155 0.03998306 0.06910406 -0.021750662
-0.08318208 0.09947427 0.034781028 0.044665243 -0.0020092693 0.213931 0.015390398 -0.25168705
-0.16586083 0.010659316 -0.17563057 -0.02784329 0.100149706 -0.23688427 -0.062997796 0.25625044
-0.17333417 -0.0024367021 0.33920512 -0.11800252 -0.0667305 -0.14114706 0.0016166838 0.08089337
-0.0461383 -0.08252327 0.101814106 0.068358354 -0.23336422 0.003691192 -0.15157549 0.034661494
0.19288339 -0.15718722 0.19907805 0.17386067 0.04695555 -0.24849217 -0.07688067 0.07259466
0.06271064 0.031457145 0.09758448 0.21937707 0.11444659 0.07844839 -0.065762006 -0.30787528
-0.041220885 0.24553618 -0.1513498 -0.158959 -0.05719212 -0.26810429 -0.2538835 0.010482192
0.012393144 -0.1430105 -0.1329635 0.05431988 -0.049739096 0.11590097 -0.052035004 0.023080844
0.0057796463 -0.5104472 -0.28775096 0.047267385 -0.12581281 -0.109236084 0.11983647 -0.06368604
-0.21947883 0.058823016 0.037163377 -0.19289853 0.07586511 -0.019182354 -0.13242702 -0.08471687
-0.07493918 -0.16363244 0.13328718 0.06103527 0.16215561 -0.0029046033 -0.048255797 0.08002891
-0.3864783 -0.052542448 0.19756903 0.114997566 -0.09194397 0.0023754174 -0.017495815 -0.027674729
0.06456446 0.14849566 0.07198106 0.06550262 0.016040742 -0.11622724 -0.21604513 -0.13141324
-0.024653802 -0.11034959 -0.15213329 -0.07507864 0.022630153 0.11033488 0.0823652 0.039983414
-0.03544496 -0.04145815 -0.045830287 -0.04149452 -0.008601698 0.08981103 0.077736914 0.027385518
0.07075468 -0.079689115 -0.15851097 0.054851126 0.03662044 -0.06934453 0.16723679 0.11213026
0.13463812 -0.15398666 -0.02830187 0.034645222 -0.06242888 0.14708568 -0.10821371 0.042432815
0.04609599 -0.053493828 -0.29827443 0.060974386 0.14586581 0.1409702 -0.07630218 0.121351354
0.10623788 -0.15840335 -0.0011539399 -0.08781123 0.07025685 0.4260055 -0.1828621 0.04742688
0.13070104 -0.27203044 0.17747116 0.23338608 -0.034539875 -0.031620327 -0.02937655 -0.10560428
-0.15620367 0.01845174 -0.16291237 -0.25153264 -0.014863716 -0.15059033 0.039538726 0.2337266
0.042658307 -0.021778908 0.01939028 -0.10837975 -0.086130716 -0.19126308 0.05756168 0.12333982
0.07791967 0.07041242 0.08247757 -0.050718084 -0.16472484 -0.17400616 0.21280426 0.18728381
-0.16665027 -0.16804978 -0.06306094 -0.00094455754 0.1387577 0.19649257 0.13321097 0.018464088
-0.41964254 -0.19958659 -0.25132602 -0.26090688 -0.049230978 0.28896052 0.4897404 -0.04990953
-0.037138987 -0.17136495 0.2253784 0.3666986 0.007929829 -0.16948555 -0.09510736 0.039858624
0.0328919 -0.019451719 0.0004826325 -0.04024247 -0.16175915 0.05680919 -0.116113074 -0.10848384
0.12130887 -0.09274932 0.14861396 0.19524138 -0.15670364 -0.04583867 0.18997778 -0.10377868
0.06457903 0.2121454 0.029627342 -0.071947195 -0.011475876 -0.08462179 -0.00998485 0.028290147
0.00021674033 0.13253258 0.26600307 0.064923465 0.06516243 0.12030376 -0.056800395 -0.10001463
0.027480625 -0.06943664 -0.11224034 0.03000684 -0.16592154 -0.043028153 0.015555647 -0.08788128
00000000: 8d31 b43d 64e5 013d c98e a43d 5224 243e
00000010: 5cd9 333c 47c5 233d 6e86 8d3d 722e b2bc
00000020: 5e5b aabd 2bb9 cb3d 8d76 0e3d e7f2 363d
00000030: f2ad 03bb ba10 5b3e 0228 7c3c 20dd 80be
00000040: 6cd7 29be 69a4 2e3c 80d8 33be 9c17 e4bc
00000050: 4a1b cd3d ca91 72be fd04 81bd 4233 833e
00000060: 837e 31be 14b1 1fbb 4bac ad3e 4eab f1bd
00000070: 00aa 88bd db88 10be e8e6 d33a 6cab a53d
00000080: 84fb 3cbd f601 a9bd ea83 d03d 77ff 8b3d
00000090: 08f7 6ebe ede7 713b 9b36 1bbe 36f9 0d3d
000000a0: 3983 453e b0f5 20be 1edb 4b3e 8808 323e
000000b0: 7654 403d bb74 7ebe 9d73 9dbd 82ac 943d
000000c0: 706e 803d 35d9 003d 5fda c73d 62a4 603e
000000d0: f962 ea3d 8da9 a03d 3bae 86bd d4a1 9dbe
000000e0: 3bd7 28bd d66d 7b3e 71fb 1abe 26c6 22be
000000f0: 4942 6abd f744 89be 05fd 81be 80bd 2b3c
00000100: 9d0c 4b3c 5871 12be 9527 08be 867e 5e3d
00000110: 39bb 4bbd 7d5d ed3d a822 55bd 0a14 bd3c
00000120: 3063 bd3b abac 02bf 1854 93be 729b 413d
00000130: 13d5 00be 2bb7 dfbd d36c f53d d46d 82bd
00000140: 0fbf 60be 67f0 703d a038 183d 3187 45be
00000150: 2b5f 9b3d 5024 9dbc f39a 07be 0a80 adbd
00000160: b679 99bd 438f 27be 6f7c 083e 1f00 7a3d
00000170: 1f0c 263e 285b 3ebb dfa7 45bd 32e6 a33d
00000180: 7ce0 c5be c036 57bd 894f 4a3e d883 eb3d
00000190: 1f4d bcbd e4ac 1b3b 6253 8fbc 1db6 e2bc
000001a0: 5f3a 843d 3f0f 183e ce6a 933d 3d26 863d
000001b0: e067 833c 8c08 eebd ef3a 5dbe 3191 06be
000001c0: c5f6 c9bc f7fe e1bd d4c8 1bbe d4c2 99bd
000001d0: df62 b93c 41f7 e13d 16af a83d a6c5 233d
000001e0: bc2e 11bd 05d0 29bd 8ab8 3bbd 28f6 29bd
000001f0: 23ee 0cbc d8ee b73d 8834 9f3d 9857 e03c
00000200: d4e7 903d 0c34 a3bd b350 22be 93ab 603d
00000210: 51ff 153d 8104 8ebd 1f40 2b3e 8da4 e53d
00000220: 93de 093e aeae 1dbe 53d9 e7bc 26e8 0d3d
00000230: 6db5 7fbd a19d 163e 269f ddbd 08ce 2d3d
00000240: 26cf 3c3d 581c 5bbd 6db7 98be 47c0 793d
00000250: d95d 153e 7e5a 103e 5144 9cbd 0f87 f83d
00000260: 3f93 d93d 7d34 22be cc3f 97ba 60d6 b3bd
00000270: d3e2 8f3d 651d da3e 3440 3bbe b042 423d
00000280: 7ed6 053e 9347 8bbe 00bb 353e c3fc 6e3e
00000290: af79 0dbd 5184 01bd 17a7 f0bc 0f47 d8bd
000002a0: dbf3 1fbe 1a28 973c 80d2 26be e3c8 80be
000002b0: f286 73bc 5a34 1abe 5cf3 213d 0756 6f3e
000002c0: 7aba 2e3d ae69 b2bc 5dd8 9e3c 34f6 ddbd
000002d0: 4d65 b0bd 78da 43be ccc5 6b3d 9699 fc3d
000002e0: 5994 9f3d 6334 903d 00ea a83d c4bd 4fbd
000002f0: a1ad 28be ac2e 32be 5ce9 593e 54c7 3f3e
00000300: 5ea6 2abe 3e15 2cbe 1826 81bd 2f9c 77ba
00000310: 8016 0e3e 5935 493e 7568 083e 0042 973c
00000320: 63db d6be 6d60 4cbe cead 80be 9695 85be
00000330: 6ca6 49bd a2f2 933e 41bf fa3e ef6d 4cbd
00000340: 0d1f 18bd 4b7a 2fbe 98c9 663e ebbf bb3e
00000350: 1dec 013c 9f8d 2dbe a6c7 c2bd cc42 233d
00000360: a8b9 063d 3659 9fbc d609 fd39 4ad5 24bd
00000370: 31a4 25be c1b0 683d b1cc edbd c72c debd
00000380: c970 f83d 5bf3 bdbd 422e 183e 5bed 473e
00000390: eb76 20be 54c1 3bbd 8989 423e eb89 d4bd
000003a0: 0342 843d a53c 593e 0ab5 f23c 0d59 93bd
000003b0: 5005 3cbc 304e adbd 7f97 23bc bdc0 e73c
000003c0: ca44 6339 9fb6 073e 8e31 883e 98f6 843d
000003d0: e173 853d d161 f63d 88a7 68bd 78d4 ccbd
000003e0: 0c1f e13c cc34 8ebd 43de e5bd e8d0 f53c
000003f0: 56e7 29be 4a3e 30bd 1ddd 7e3c 1afb b3bd

onnx::Conv_139 f4 [16]
0.42320138 0.71897495 -0.22333926 0.427075 -0.29742572 0.68629974 0.98394454 0.8285778
0.99763626 0.36783615 0.70430356 0.6950769 0.9678953 0.71699864 0.04644165 0.7550248
00000000: daad d83e be0e 383f 0cb3 64be 93a9 da3e
00000010: 2f48 98be 57b1 2f3f cae3 7b3f ad1d 543f
00000020: 1765 7f3f 0555 bc3e 3d4d 343f 8ff0 313f
00000030: fdc7 773f 398d 373f 9939 3e3d 4e49 413f

onnx::Conv_141 f4 [16, 16, 3, 3]
0.08785336 0.061078075 0.1313339 0.027511995 0.101472944 0.057453584 0.04462108 0.053433422
0.08535188 0.06338121 0.07763782 0.06917349 0.1009482 0.06668434 0.09482748 -0.046196125
0.060424224 0.16541597 -0.0276515 0.055776175 -0.061501794 0.042796943 0.0051238723 0.040875103
0.048912372 -0.060423695 -0.033780087 0.00575077 -0.07557108 -0.13446952 -0.076321654 -0.050729055
-0.026007362 -0.109868914 -0.0633017 -0.035984207 -0.03674992 -0.0404772 -0.12960303 0.014404459
-0.014840575 -0.048103783 -0.018007448 0.037138 -0.093001254 -0.04091135 -0.06919651 -0.052892517
-0.028358515 -0.052941613 -0.046940506 -0.0020990605 -0.024343906 -0.07484121 0.071434096 -0.0010226682
-0.009003032 0.05638368 0.040499385 0.0042061144 0.06194226 0.111714244 0.05187771 0.030183177
0.031132773 -0.010234793 0.017812394 0.07092292 0.08506437 -0.02980911 -0.03185811 0.05223029
-0.024580482 0.079892784 -0.02686516 -0.02838283 -0.073185414 -0.07203218 -0.032894876 0.012260833
-0.03411182 0.041855853 -0.06255569 -0.04726175 0.06289785 -0.0135640185 -0.041778043 -0.031529628
-0.016928362 -0.0155247655 -0.013795899 -0.031374395 0.0005090853 -0.10195078 -0.043198697 0.035002246
-0.031769793 0.06086962 0.08022835 -0.09004512 0.038537625 0.072115086 -0.08039449 -0.015999286
0.062158577 -0.022363981 -8.320807e-05 0.011132674 -0.040012907 0.024278048 0.044241656 -0.0543179
0.008567897 0.033187352 -0.019235633 -0.05212153 -0.07700946 0.021282066 0.039048236 0.020822255
0.019861571 -0.01331904 -0.07224244 0.018523566 0.004332134 0.0073696235 0.046762016 0.05564087
0.111695416 0.05365536 0.05181025 0.102656685 -0.051935684 -0.076361105 0.036563866 -0.00686338
0.036881667 0.043362617 -0.09890282 -0.031173341 0.008237733 -0.025251841 -0.055185415 -0.055511277
0.022628069 -0.02911766 -0.040331 0.12629631 0.10034529 0.048128437 0.019210208 0.0002219508
0.0629949 -0.044143077 0.006085518 -0.04971338 -0.11077779 0.044241853 0.03086007 0.0214176
-0.008750405 0.01423406 -0.15907758 0.04374496 -0.0062825754 -0.16319108 -0.07159352 -0.052747
0.021345535 -0.06073529 -0.027207037 0.17599508 0.16095878 0.16824204 0.06432249 0.19501211
0.13450387 0.095651895 0.149666 0.06678275 -0.09743959 -0.035013452 0.025051693 -0.06872273
0.03445074 0.050868116 0.07088509 -0.023749363 -0.062805645 -0.042203188 0.052860577 0.11220933
0.048051544 -0.12921482 -0.030268801 0.032083455 0.095465705 0.00211381 -0.06970544 -0.044693585
0.060454383 -0.07687471 0.04596811 -0.035472505 0.026704531 0.027254552 -0.05083065 0.046221048
0.043333564 0.07623567 0.06525199 0.034178704 0.02519266 -0.02562706 0.02401185 -0.028216459
0.015142423 -0.0065844115 0.06344733 -0.03224725 0.011175333 0.006558515 0.01642631 0.10370673
0.07295688 -0.08061917 -0.04350971 0.05610662 -0.04885297 -0.066558756 0.00072524825 0.014971412
-0.0843983 -0.04728185 0.003815267 -0.055426043 -0.039432272 0.036200613 -0.023114113 -0.03320572
-0.017762294 -0.0150359245 -0.053321287 0.08939178 -0.082260326 -0.15564881 -0.086807564 -0.0038613786
-0.019375246 -0.025690034 -0.10299193 -0.031347968 -0.03353574 -0.0602618 -0.009509981 -0.004723485
00000000: 76ec b33d 012d 7a3d 657c 063e d660 e13c
00000010: 0cd1 cf3d 7354 6b3d 98c4 363d 01dd 5a3d
00000020: f7cc ae3d 02ce 813d 9400 9f3d d5aa 8d3d
00000030: eebd ce3d cd91 883d e934 c23d 2638 3dbd
00000040: 647f 773d ce62 293e 6685 e2bc 8f75 643d
00000050: 4ee9 7bbd d94b 2f3d 28e6 a73b a76c 273d
00000060: 5758 483d d67e 77bd fd5c 0abd f570 bc3b
00000070: 03c5 9abd 61b2 09be 874e 9cbd 45c9 4fbd
00000080: 640d d5bc f402 e1bd 52a4 81bd 2d64 13bd
00000090: 1687 16bd 6ccb 25bd a8b6 04be ae00 6c3c
000000a0: e225 73bc 7908 45bd 5b84 93bc 041e 183d
000000b0: 7177 bebd a992 27bd e6b6 8dbd d3a5 58bd
000000c0: 1e50 e8bc 4ed9 58bd b044 40bd 6490 09bb
000000d0: df6c c7bc 5946 99bd 0a4c 923d 0d0b 86ba
000000e0: 7481 13bc 93f2 663d afe2 253d 72d3 893b
000000f0: 2bb7 7d3d 70ca e43d b97d 543d b642 f73c
00000100: 280a ff3c d5af 27bc 4ceb 913c 0940 913d
00000110: 3a36 ae3d 3c32 f4bc a67d 02bd 6eef 553d
00000120: 025d c9bc d49e a33d 5314 dcbc 1c83 e8bc
00000130: 3ce2 95bd 9c85 93bd c7bc 06bd a9e1 483c
00000140: d6b8 0bbd 0b71 2b3d 331d 80bd 8995 41bd
00000150: 97d0 803d 9e3b 5ebc 741f 2bbd 3625 01bd
00000160: 59ad 8abc 965b 7ebc 3208 62bc 7082 00bd
00000170: 2374 053a 92cb d0bd 1ef1 30bd 845e 0f3d
00000180: 0b21 02bd 6c52 793d c34e a43d 9369 b8bd
00000190: a1d9 1d3d 13b1 933d dea5 a4bd ef10 83bc
000001a0: fe99 7e3d ab34 b7bc fe7f aeb8 d265 363c
000001b0: 93e4 23bd c2e2 c63c bd36 353d 727c 5ebd
000001c0: 5d60 0c3c 76ef 073d 0c94 9dbc 637d 55bd
000001d0: 23b7 9dbd ba57 ae3c 0bf1 1f3d 6f93 aa3c
000001e0: bcb4 a23c 1a38 5abc d8f3 93bd bcbe 973c
000001f0: 93f4 8d3b e27c f13b 8789 3f3d aee7 633d
00000200: 91c0 e43d b9c5 5b3d fc36 543d ab3d d23d
00000210: 83ba 54bd 3663 9cbd fec3 153d 34e6 e0bb
00000220: 3b11 173d 009d 313d 908d cabd 3c5f ffbc
00000230: 8ef7 063c f3dc cebc 1a0a 62bd cb5f 63bd
00000240: 805e b93c 2988 eebc 1e32 25bd d253 013e
00000250: d581 cd3d 5322 453d ba5e 9d3c 77bb 6839
00000260: 7803 813d 5fcf 34bd 0669 c73b 42a0 4bbd
00000270: 77df e2bd f236 353d 42ce fc3c f673 af3c
00000280: dc5d 0fbc fa35 693c 3ce5 22be ea2d 333d
00000290: 10de cdbb 901b 27be a09f 92bd 3d0d 58bd
000002a0: d5dc ae3c 91c5 78bd 4be1 debc 0e38 343e
000002b0: 61d2 243e a447 2c3e 82bb 833d 41b1 473e
000002c0: 62bb 093e 24e5 c33d 0b42 193e 65c5 883d
000002d0: 688e c7bd 446a 0fbd 3539 cd3c 81be 8cbd
000002e0: 381c 0d3d 165b 503d 342c 913d 068e c2bc
000002f0: 3fa0 80bd 40dd 2cbd 5584 583d 01ce e53d
00000300: b2d1 443d e450 04be 47f6 f7bc f169 033d
00000310: 8683 c33d d987 0a3b bac1 8ebd 9f10 37bd
00000320: 049f 773d 7d70 9dbd 0f49 3c3d 9e4b 11bd
00000330: 76c3 da3c f044 df3c cd33 50bd 4852 3d3d
00000340: 897e 313d 7221 9c3d d6a2 853d f8fe 0b3d
00000350: d660 ce3c d7ef d1bc 80b4 c43c 3426 e7bc
00000360: ed17 783c 0cc2 d7bb acf0 813d b115 04bd
00000370: be18 373c d0e8 d63b 7890 863c 3264 d43d
00000380: 6b6a 953d aa1b a5bd 3d37 32bd 0ed0 653d
00000390: 0d1a 48bd f54f 88bd 961e 3e3a a74a 753c
000003a0: 04d9 acbd 9daa 41bd 8f09 7a3b 6b06 63bd
000003b0: bc83 21bd 1847 143d cf59 bdbc b902 08bd
000003c0: 3b82 91bc 3d59 76bc 6c67 5abd 0a13 b73d
000003d0: 1a78 a8bd 6762 1fbe 2ac8 b1bd 2f0f 7dbb
000003e0: d6b8 9ebc e873 d2bc 6fed d2bd ba66 00bd
000003f0: c65c 09bd 14d5 76bd c0cf 1bbc 77c7 9abb

onnx::Conv_142 f4 [16]
0.20279002 0.86998546 1.4758883 0.48693284 2.7130537 1.316758 0.30962276 0.6782165
0.27014723 1.1695001 0.79516166 1.3529238 0.5420136 1.8547004 -0.29371822 1.9271538
00000000: 30a8 4f3e 5eb7 5e3f e8e9 bc3f 434f f93e
00000010: aca2 2d40 878b a83f e086 9e3e 999f 2d3f
00000020: bd50 8a3e 2eb2 953f b78f 4b3f 9b2c ad3f
00000030: 67c1 0a3f d366 ed3f 3c62 96be faac f63f

onnx::Conv_144 f4 [32, 16, 3, 3]
-0.010952352 -0.13395679 -0.074129105 -0.07655713 -0.0639323 -0.04477123 -0.014570933 -0.0052792383
0.049880557 -0.027431482 -0.10456751 -0.17054191 -0.023994025 -0.026227202 0.008827011 -0.07984262
-0.021268558 -0.06120166 0.036262237 0.0014742917 0.03274019 -0.04971325 -0.043052368 0.044673603
0.023377761 0.12569118 0.1150129 0.0060582105 -0.027660506 0.046159778 -0.03437484 -0.08492684
0.08562415 -0.058454357 -0.0514661 0.06654414 0.07479427 -0.017147927 0.071051374 0.15276627
0.1013763 0.035912182 -0.027795019 0.015055991 0.033348646 -0.09357675 -0.0148798395 -0.069265075
-0.06801458 -0.024067134 -0.0889788 -0.016252432 0.010495027 0.058923133 -0.20943847 -0.060047425
0.080574825 -0.11214469 -0.01937605 0.11038221 0.057143893 0.004739964 0.013807619 -0.039568022
-0.033841062 -0.02838858 -0.0070124245 0.004795587 0.095331736 0.031413466 0.021882018 0.060726304
-0.0075014294 -0.08004602 0.05685228 0.04836887 0.03329853 0.09217194 -0.011317037 0.034391943
0.01945698 -0.07166886 -0.056615446 -0.050642107 -0.08522579 -0.053397346 0.032757614 -0.026632084
0.06842605 0.10811742 0.04236638 0.04386855 0.040748093 0.08644692 0.021152401 0.06603075
0.012755288 0.031624537 0.10712424 0.026825499 -0.0036966756 0.03355881 0.05614476 0.050363827
-0.03246455 0.11124478 0.018284218 -0.027630597 -0.069154985 -0.09375175 0.04873905 -0.020182155
-0.0020193532 0.04941981 0.08026922 -0.033319835 -0.052367147 -0.008173431 0.021161925 -0.08383366
-0.024723127 -0.03131761 -0.12877035 -0.036492888 -0.060831927 0.0049267155 -0.04725207 0.04667718
0.029717827 0.012156302 0.006519868 -0.01884029 0.043820407 0.037872612 0.032564797 -0.020020075
-0.019469298 0.0950996 -0.08265742 -0.08370173 -0.035592675 -0.028721794 -0.022146272 -0.09594469
-0.06337072 -0.04900105 0.059988413 -0.026457848 0.07617055 0.075463206 -0.04537362 0.10125753
0.05807034 0.108184986 0.14785874 -0.10102487 0.15792258 0.10070686 -0.11014613 0.09803542
0.08142206 -0.018774241 0.0021888649 -0.05342331 -0.06572834 0.07739551 0.021361176 -0.058387455
-0.039695144 0.04055409 -0.07316602 -0.13490005 -0.06560115 0.015919525 -0.05525052 0.054692272
0.096221596 -0.105339006 -0.026794666 0.03177304 -0.020659404 0.07064404 0.06445751 -0.035158828
-0.028142996 0.1032043 -0.031934828 -0.034350276 -0.014844999 0.01647686 -0.09501653 -0.13175456
0.025581649 0.037855722 -0.10584674 -0.034881935 -0.10921641 0.023650311 -0.017744388 0.10799674
0.060298745 0.034437183 -0.052476257 0.01989748 0.027992327 -0.067451715 0.087352924 0.009348318
0.0834079 0.109604664 -0.011059762 -0.0003986596 0.1300326 -0.058773234 -0.004089438 -0.036298875
-0.14322852 -0.13057707 0.0149072185 -0.072279006 -0.06271059 -0.0048462613 0.0014992887 -0.094920434
-0.0600381 0.088419296 0.025575537 -0.02498639 0.064800225 0.013617238 0.052711003 -0.02786909
-0.043005783 -0.04097052 -0.050851148 -0.07181977 0.055402387 -0.118981294 -0.04972123 0.06931066
-0.005176176 -0.001018468 0.040645417 -0.046903837 0.038033273 0.020357326 -0.07891212 -0.042014845
0.03959424 -0.053617794 -0.04238667 0.044209026 -0.0031362837 0.010634598 0.07231705 -0.04258612
00000000: 7e71 33bc f82b 09be 00d1 97bd fcc9 9cbd
00000010: f0ee 82bd 0a62 37bd ecba 6ebc 76fd acbb
00000020: 8e4f 4c3d fdb7 e0bc 7e27 d6bd 8aa2 2ebe
00000030: 1e8f c4bc 6eda d6bc 2b9f 103c 8784 a3bd
00000040: 663b aebc 98ae 7abd b687 143d 053d c13a
00000050: 941a 063d 1fa0 4bbd ae57 30bd abfb 363d
00000060: b882 bf3c 30b5 003e e28b eb3d f483 c63b
00000070: 4998 e2bc 0912 3d3d a2cc 0cbd 20ee adbd
00000080: b75b af3d d66d 6fbd 1ece 52bd 4b48 883d
00000090: bd2d 993d cf79 8cbc 6283 913d c36e 1c3e
000000a0: 619e cf3d a718 133d 61b2 e3bc 67ad 763c
000000b0: 9798 083d 2ba5 bfbd 92ca 73bc d9da 8dbd
000000c0: 3a4b 8bbd 7028 c5bc 843a b6bd d223 85bc
000000d0: 55f3 2b3c 6259 713d 0a77 56be 4af4 75bd
000000e0: 6a04 a53d 1dac e5bd 86ba 9ebc 1110 e23d
000000f0: b70f 6a3d b351 9b3b 5a39 623c 1412 22bd
00000100: ed9c 0abd 2b8f e8bc 7bc8 e5bb 4d24 9d3b
00000110: 493d c33d 68ab 003d eb41 b33c 25bc 783d
00000120: 8dce f5bb 2bef a3bd f0dd 683d 701e 463d
00000130: 0a64 083d a4c4 bc3d 186b 39bc 91de 0c3d
00000140: 3f64 9f3c 20c7 92bd 99e5 67bd 196e 4fbd
00000150: dc8a aebd 2db7 5abd d92c 063d 872b dabc
00000160: f522 8c3d aa6c dd3d 5f88 2d3d 82af 333d
00000170: 79e7 263d 150b b13d cd47 ad3c 213b 873d
00000180: 8efb 503c bb88 013d f463 db3d 26c1 db3c
00000190: ed43 72bb f674 093d 0cf8 653d 4d4a 4e3d
000001a0: 8cf9 04bd 4ed4 e33d c9c8 953c 9059 e2bc
000001b0: 21a1 8dbd eb00 c0bd 99a2 473d 0c55 a5bc
000001c0: 2057 04bb 6d6c 4a3d 3064 a43d 617a 08bd
000001d0: ef7e 56bd dbe9 05bc c65b ad3c fbb0 abbd
000001e0: 2888 cabc e546 00bd 60dc 03be 9179 15bd
000001f0: e62a 79bd 4970 a13b 638b 41bd 9230 3f3d
00000200: cd72 f33c 3a2b 473c 9ea4 d53b f456 9abc
00000210: 077d 333d 5020 1b3d aa62 053d 2401 a4bc
00000220: 147e 9fbc 94c3 c23d 4b48 a9bd d06b abbd
00000230: a0c9 11bd f849 ebbc 196c b5bc a67e c4bd
00000240: 82c8 81bd 53b5 48bd 69b6 753d 21be d8bc
00000250: 4eff 9b3d 748c 9a3d b0d9 39bd 1c60 cf3d
00000260: 2adb 6d3d 1790 dd3d 4868 173e 21e6 cebd
00000270: 75b6 213e 663f ce3d 4b94 e1bd cbc6 c83d
00000280: 9cc0 a63d 70cc 99bc 0f73 0f3b 67d2 5abd
00000290: 949c 86bd 8a81 9e3d a2fd ae3c af27 6fbd
000002a0: 6097 22bd 0c1c 263d 11d8 95bd 3d23 0abe
000002b0: e559 86bd aa69 823c 5f4e 62bd 0105 603d
000002c0: d40f c53d fabb d7bd 7d80 dbbc 7224 023d
000002d0: e93d a9bc d3ad 903d 4d02 843d b402 10bd
000002e0: 248c e6bc c75c d33d 18ce 02bd e0b2 0cbd
000002f0: 7038 73bc 7bfa 863c 0798 c2bd abea 06be
00000300: 9b90 d13c 9a0e 1b3d 2dc6 d8bd 5ce0 0ebd
00000310: daac dfbd 4cbe c13c ae5c 91bc 652d dd3d
00000320: d1fb 763d 010e 0d3d 58f1 56bd 0a00 a33c
00000330: 2a50 e53c 2024 8abd 17e6 b23d b029 193c
00000340: c3d1 aa3d 6978 e03d 0134 35bc 3003 d1b9
00000350: 4427 053e 34bc 70bd b100 86bb 21ae 14bd
00000360: 7faa 12be ffb5 05be 683d 743c 0407 94bd
00000370: 696e 80bd 63cd 9ebb c883 c43a a565 c2bd
00000380: 83ea 75bd 2d15 b53d ca83 d13c 42b0 ccbc
00000390: fbb5 843d d61a 5f3c 7ee7 573d b84d e4bc
000003a0: d526 30bd b4d0 27bd 4b49 50bd 3e16 93bd
000003b0: 9ded 623d 77ac f3bd 7da8 4bbd bff2 8d3d
000003c0: e99c a9bb 1e7e 85ba cf7b 263d 3d1e 40bd
000003d0: c7c8 1b3d 68c4 a63c ad9c a1bd c217 2cbd
000003e0: 922d 223d 559e 5bbd a59d 2dbd 8614 353d
000003f0: 1c8a 4dbb bd3c 2e3c f61a 943d c96e 2ebd

onnx::Conv_145 f4 [32]
0.3664269 -0.16939707 0.39531165 1.9295583 2.0810292 0.27018183 0.50794196 1.2086155
0.66717875 0.95510423 0.19668569 0.6553497 0.23673636 0.32845747 1.128245 -0.12619174
0.99311674 0.9563285 0.20582005 1.1144373 -0.2882397 -0.12801021 0.41995943 0.054809257
0.30140474 -0.1853849 0.43590686 0.13608612 0.4822843 -0.31058636 0.42382246 0.29241636
00000000: 4e9c bb3e 6d76 2dbe 4a66 ca3e c4fb f63f
00000010: 952f 0540 4655 8a3e 7c08 023f eab3 9a3f
00000020: 3acc 2a3f b681 743f f967 493e ffc4 273f
00000030: 046b 723e 942b a83e 556a 903f 6838 01be
00000040: e63c 7e3f f2d1 743f 7ec2 523e e2a5 8e3f
00000050: 2794 93be 1c15 03be ec04 d73e ac7f 603d
00000060: b951 9a3e 8ad5 3dbe 2f2f df3e 295a 0b3e
00000070: f8ed f63e 2d05 9fbe 42ff d83e 99b7 953e

onnx::Conv_147 f4 [32, 32, 3, 3]
0.067208596 0.049811278 -0.035030074 0.0750915 0.02298748 0.01923349 0.08204505 0.062305547
-0.05476094 -0.039165046 -0.070122465 0.08926477 0.039801873 -0.021981578 0.08079642 -0.030874755
-0.16949208 0.046588752 0.07590532 0.012648689 -0.022690207 0.033080667 -0.02926677 -0.13014615
-0.007906963 -0.084898196 -0.1371607 0.03970505 0.05388563 -0.002318922 0.029087082 0.08020638
0.015021785 -0.028807877 0.055930924 0.01065315 0.0029438476 0.0050683278 -0.08886397 -0.01083539
0.045936994 -0.0936513 -0.075207286 -0.035763826 -0.07101103 -0.0846606 0.04806988 0.046278168
0.09277954 -0.0096890405 0.026795896 0.18286815 0.044269774 -0.08799512 0.14843358 0.060216296
0.12582538 0.088752605 0.012869276 -0.021944381 0.09152613 -0.0392865 -0.008828977 -0.0050472566
-0.019015897 0.034717634 0.0064794 0.0025245524 0.065497614 -0.04192686 -0.028268306 -0.07633266
0.0047074454 0.026535125 0.030481631 0.049652766 0.014492393 0.085373364 -0.084042914 -0.0070162397
-0.007831815 0.028946007 0.03228543 -0.077016115 -0.041043933 -0.106394984 -0.06588582 0.05411124
-0.03220598 -0.21057934 0.11015176 -0.04515383 0.02946618 -0.01614143 0.026771901 0.21195568
0.056702793 -0.05252914 0.1406175 -0.006638952 0.06500139 0.104114234 -0.08350009 -0.013544281
0.086209916 0.032980617 -0.010776778 0.034643974 0.0005021372 -0.058709357 -0.09542637 0.051995646
0.025437793 -0.199344 -0.023562066 -0.029680558 -0.17631131 -0.011168848 0.00544058 0.05944278
0.020834114 -0.03586145 0.10790982 0.0062778816 -0.04272802 0.021814048 -0.037454545 -0.08046858
-0.078322396 0.005600786 -0.015840752 -0.024062194 -0.0062156823 0.03344665 -0.1353686 0.03515563
0.023413025 0.020209417 -0.011749926 -0.051179014 0.03430937 -0.0493586 -0.03400989 -0.019651825
-0.014551275 0.017439641 0.0752665 -0.015954277 -0.03167432 0.0074494006 -0.09166358 -0.012593922
0.03474967 -0.07309662 -0.013551776 -0.0063287653 -0.15604445 -0.019169046 0.0048914663 -0.06303768
0.052596804 0.11384202 -0.20324518 -0.05628326 -0.06423993 0.042103734 -0.025005372 0.011065903
0.07337523 0.019153044 0.019241156 -0.00074027246 0.052827463 0.04552387 0.0335775 0.024122428
-0.03371606 -0.007000989 0.009080362 -0.030554276 0.024850694 -0.024690129 -0.10764433 -0.035982046
-0.03154137 -0.068164006 -0.0941598 0.00999651 -0.04478285 -0.055179905 0.012105359 0.20504543
0.025908826 -0.05536817 -0.008826701 -0.0865907 -0.010402031 -0.15325624 -0.057187952 0.035182673
-0.14246848 -0.08487021 0.020905303 -0.09131873 -0.008201642 0.060618408 0.04512967 -0.0014831992
-0.039707188 -0.052515917 0.013761005 0.13648202 0.013825829 -0.025548568 0.12748787 0.07366669
0.014814963 0.012401811 -0.055935636 0.019058548 0.015021084 -0.097199604 -0.06047484 -0.06525402
-0.02952793 0.042032458 -0.12892714 -0.12173708 0.0035888243 0.046964496 0.060488753 0.007019686
0.08663295 0.10423319 0.026267402 0.0032542564 0.022089886 -0.015541667 -0.1919865 -0.06372191
-0.018753309 0.038819734 -0.087803975 -0.03687193 -0.082896926 -0.084302366 0.05771185 0.018314617
-0.034830704 0.051847078 -0.030335687 -0.072496735 0.09680465 0.12630664 0.06888287 0.110945284
00000000: a9a4 893d e906 4c3d b27b 0fbd 93c9 993d
00000010: 3d50 bc3c 8d8f 9d3c 3c07 a83d 1a34 7f3d
00000020: 024d 60bd 876b 20bd 5e9c 8fbd 73d0 b63d
00000030: 4a07 233d b612 b4bc 9878 a53d 0eed fcbc
00000040: 558f 2dbe d9d3 3e3d 4074 9b3d 723c 4f3c
00000050: d0e0 b9bc 987f 073d dec0 efbc 0845 05be
00000060: 358c 01bc 1bdf adbd db73 0cbe c3a1 223d
00000070: 2eb7 5c3d 0ef9 17bb 0848 ee3c 3e43 a43d
00000080: ef1d 763c 7ffe ebbc d317 653d 8d8a 2e3c
00000090: 91ed 403b 3714 a63b 50fe b5bd eb86 31bc
000000a0: 6e28 3c3d 41cc bfbd 4706 9abd 177d 12bd
000000b0: 3b6e 91bd 8962 adbd ece4 443d 2d8e 3d3d
000000c0: 3303 be3d c8be 1ebc 1183 db3c ca41 3b3e
000000d0: 3954 353d c936 b4bd f9fe 173e 5da5 763d
000000e0: 5ed8 003e edc3 b53d a8d9 523c b4c4 b3bc
000000f0: 0d72 bb3d e2ea 20bd 6aa7 10bc 7563 a5bb
00000100: 3ac7 9bbc 1434 0e3d 2651 d43b f672 253b
00000110: 9d23 863d 80bb 2bbd ef92 e7bc 4c54 9cbd
00000120: ea40 9a3b 3160 d93c 9db4 f93c b360 4b3d
00000130: 8071 6d3c 3bd8 ae3d b11e acbd 7ce8 e5bb
00000140: 0351 00bc 2d20 ed3c ba3d 043d a0ba 9dbd
00000150: af1d 28bd 9de5 d9bd 25ef 86bd bfa3 5d3d
00000160: 6bea 03bd 1ca2 57be 3f97 e13d 39f3 38bd
00000170: 0f63 f13c 083b 84bc bf50 db3c e90a 593e
00000180: 3041 683d cc28 57bd 09fe 0f3e 918b d9bb
00000190: 731f 853d d839 d53d 1802 abbd d5e8 5dbc
000001a0: d38e b03d af16 073d 1591 30bc d7e6 0d3d
000001b0: dba1 033a 3979 70bd e76e c3bd 63f9 543d
000001c0: eb62 d03c d520 4cbe 3c05 c1bc a424 f3bc
000001d0: f48a 34be 8bfd 36bc e546 b23b 467a 733d
000001e0: 4eac aa3c 75e3 12bd d3ff dc3d b0b6 cd3b
000001f0: 9403 2fbd 60b3 b23c f069 19bd b6cc a4bd
00000200: 7e67 a0bd cc86 b73b 77c4 81bc 141e c5bc
00000210: ecac cbbb 5bff 083d 119e 0abe 5aff 0f3d
00000220: accc bf3c 388e a53c c382 40bc 16a1 51bd
00000230: fb87 0c3d 3e2c 4abd f44d 0bbd ddfc a0bc
00000240: 7968 6ebc 94dd 8e3c 5325 9a3d 8bb2 82bc
00000250: efbc 01bd 1a1a f43b 1dba bbbd bd56 4ebc
00000260: ac55 0e3d aeb3 95bd 4508 5ebc 8861 cfbb
00000270: 1eca 1fbe 6708 9dbc 9848 a03b e619 81bd
00000280: bf6f 573d 0126 e93d 811f 50be 4789 66bd
00000290: 3990 83bd f774 2c3d 11d8 ccbc c34d 353c
000002a0: c145 963d d8e6 9c3c a19f 9d3c d80e 42ba
000002b0: 9c61 583d 3d77 3a3d 9088 093d 669c c53c
000002c0: da19 0abd 8d68 e5bb ccc5 143c f64c fabc
000002d0: af93 cb3c f442 cabc a174 dcbd e961 13bd
000002e0: 8631 01bd 9299 8bbd dad6 c0bd 67c8 233c
000002f0: 396e 37bd 5304 62bd 8e55 463c 6ef7 513e
00000300: bf3e d43c bcc9 62bd de9d 10bc 7756 b1bd
00000310: 486d 2abc 34ef 1cbe ea3d 6abd b51b 103d
00000320: 42e3 11be 6fd0 adbd 9941 ab3c 5005 bbbd
00000330: 2e60 06bc 024b 783d e4d9 383d e867 c2ba
00000340: 01a4 22bd ee1a 57bd d775 613c f1c1 0b3e
00000350: bb85 623c 3b4b d1bc 2e8c 023e 90de 963d
00000360: 75ba 723c f730 4b3c c41c 65bd ac20 9c3c
00000370: fe1a 763c 9610 c7bd 77b4 77bd e6a3 85bd
00000380: 8fe4 f1bc 3a2a 2c3d 7a05 04be 4a51 f9bd
00000390: 7b32 6b3b d85d 403d 0ec3 773d 6505 e63b
000003a0: 9e6c b13d 3678 d53d bc2e d73c 5d45 553b
000003b0: d9f5 b43c 7aa2 7ebc 1c98 44be a280 82bd
000003c0: 8aa0 99bc 7101 1f3d 92d2 b3bd 0507 17bd
000003d0: ddc5 a9bd b8a6 acbd 4363 6c3d 8908 963c
000003e0: a4aa 0ebd 9a5d 543d 8c82 f8bc 2b79 94bd
000003f0: 8441 c63d 8756 013e 7612 8d3d 4837 e33d

onnx::Conv_148 f4 [32]
0.20753703 0.9583882 0.93684494 1.1446966 1.533083 0.33022356 -0.085629106 0.41510487
0.21060857 1.1725484 0.6365956 0.14516625 0.85876065 -0.27055117 0.6039499 0.19126707
0.47522938 0.32035473 1.5992547 0.73572075 0.93602395 1.421735 0.45099008 -0.6818403
0.26037812 1.0437908 0.681477 0.74323636 0.7836166 0.31558883 0.320349 -0.45979652
00000000: 9684 543e ee58 753f 12d5 6f3f 6b85 923f
00000010: 103c c43f 1013 a93e 505e afbd a088 d43e
00000020: c6a9 573e 1116 963f eef7 223f 76a6 143e
00000030: bdd7 5b3f af85 8abe 769c 1a3f 84db 433e
00000040: 4451 f33e 8905 a43e 61b4 cc3f 3258 3c3f
00000050: 449f 6f3f 6afb b53f 2ce8 e63e 168d 2ebf
00000060: 4850 853e f09a 853f 4775 2e3f bd44 3e3f
00000070: 199b 483f dc94 a13e c904 a43e 736a ebbe
